saved_model/toy_vis.pt (torch, 252685 bytes, 10 tensors)

weight f4 [6, 3, 5, 5]
0	0x3dde1fc9	0.10845906
1	0xbbbd1b30	-0.0057710633
2	0xbc802345	-0.015641818
3	0x3dd56789	0.104201384
4	0x3cdf8d8f	0.02728918
5	0xbdaa79a6	-0.08323984
6	0xbd9b8dc5	-0.075954
7	0xbd68e548	-0.056859285
8	0xbdc9db43	-0.09856274
9	0xbdb6089a	-0.08888359
10	0xbc80d1da	-0.015725065
11	0xbdd5c44d	-0.10437832
12	0xbd4ee36c	-0.050509855
13	0xbca02212	-0.019547496
14	0xbc3ac209	-0.011398801
15	0x3d7d1eb7	0.06179687
16	0xbc2796fd	-0.0102288695
17	0x3cf3f1c4	0.029778369
18	0xbdea5c39	-0.11443371
19	0xbd129b14	-0.035792425
20	0x3daec67e	0.08533953
21	0xbd7ff025	-0.06248488
22	0xbd99d547	-0.075113826
23	0xbd3a64af	-0.045506176
24	0x3d906f37	0.070524625
25	0x3ddf009c	0.10888788
26	0x3d86187b	0.06547638
27	0xbd427199	-0.047471616
28	0x3dc0e5b0	0.094188094
29	0x3daba71c	0.08381483
30	0x3dce5357	0.100744896
31	0xbdd17531	-0.102274306
32	0xbcc4536c	-0.02396556
33	0x3d289c93	0.041164946
34	0xbd47b748	-0.048758775
35	0x3deb6ec4	0.11495736
36	0xbdc0b239	-0.09408993
37	0xbc7293ea	-0.014805773
38	0xbd1bd77f	-0.03804731
39	0x3d2456ca	0.04012183
40	0xbde72edd	-0.11288235
41	0xbc2dc529	-0.010606089
42	0xbd40583a	-0.04695914
43	0x3ca23b08	0.019803539
44	0x3d49b16d	0.049241472
45	0x3deba7d6	0.115066215
46	0xbd8d0282	-0.06885244
47	0x3bd8f514	0.0066210125
48	0xbd2c8108	-0.04211524
49	0x3d740e64	0.059584036
50	0xbd1706da	-0.03687177
51	0x3d378a03	0.044809353
52	0xbd95f183	-0.07321455
53	0x3d943190	0.07236016
54	0x3dcdf754	0.1005694
55	0xbd8a762c	-0.06760821
56	0x3d7f3947	0.062310483
57	0xbd1bc518	-0.03802976
58	0x3d51e5bc	0.051244482
59	0x3d14895e	0.036263816
60	0x3df012aa	0.1172231
61	0xbd8fa68b	-0.070141874
62	0x3d265add	0.040613998
63	0x3d9c77f6	0.07640068
64	0xbca31a10	-0.019909889
65	0x3bea27f9	0.0071458784
66	0x3d6beeee	0.057600908
67	0xbc962836	-0.018329721
68	0x3d997ffc	0.07495114
69	0xbdec018b	-0.11523732
70	0xbc9fc20c	-0.019501708
71	0x3dc3783e	0.09544419
72	0xbc2d56ad	-0.010579747
73	0xbd9c2311	-0.07623876
74	0x3d440b5e	0.047862403
75	0xbd960087	-0.07324319
76	0x3d0191d4	0.031633213
77	0xbd6a63f5	-0.057224233
78	0xbd908727	-0.07057028
79	0xbcef4b24	-0.029210635
80	0xbd28b9f7	-0.041192975
81	0xbbf6e1b4	-0.00753423
82	0x3cc2501f	0.023719845
83	0xbdd76fb7	-0.10519355
84	0xbd7eb03d	-0.062179793
85	0x3ddc2454	0.107491165
86	0xbdd53395	-0.10410229
87	0x3cfd5e4f	0.030928759
88	0xbd3f7b14	-0.046748236
89	0xbd9f58eb	-0.07780632
90	0x3d11c371	0.035586778
91	0xbdb06b35	-0.08614198
92	0xbd94ce20	-0.07265878
93	0x3cc96d0f	0.024588136
94	0x3d16df74	0.036834195
95	0x3d559428	0.052143246
96	0xbd666c38	-0.05625555
97	0x3dd227be	0.102614865
98	0xbde6e572	-0.11274232
99	0xbd9f7139	-0.077852674
100	0xbd7906b8	-0.060797423
101	0x3d6697dd	0.05629717
102	0x3d89028a	0.066899374
103	0xbc9c842f	-0.019105999
104	0xbcabb415	-0.020959893
105	0x3bfcd4ec	0.007715812
106	0x3dc21efe	0.094785675
107	0x3c6a237b	0.014290686
108	0x3d9baf9c	0.07601854
109	0x3dc47c74	0.0959405
110	0xbc97c0b3	-0.018524503
111	0xbc5551e6	-0.013020014
112	0x3d8fa54c	0.0701395
113	0xbd3d6860	-0.046242118
114	0xbde81814	-0.113327175
115	0x3dcf1d94	0.101130635
116	0xbdb8a4c8	-0.090158045
117	0xbcd61db5	-0.026137212
118	0xbd2e9111	-0.042618815
119	0x3d86a183	0.06573775
120	0x3ce1cee7	0.027564479
121	0xbc5689a2	-0.013094338
122	0xbd40b051	-0.04704315
123	0xbddb48c6	-0.1070724
124	0x3dde90ce	0.10867463
125	0x3c7e8f76	0.015537133
126	0xbd9d1a7b	-0.076710664
127	0xbda58027	-0.08081084
128	0x3de9acd5	0.11409918
129	0x3d6e9345	0.058245916
130	0x3dc9943b	0.09842726
131	0x3d1d2a58	0.03837046
132	0xbd9ee734	-0.07758942
133	0x3dc7e556	0.09760539
134	0xbca68f0c	-0.020331882
135	0xbd120eb0	-0.03565854
136	0xbcdac93e	-0.026707288
137	0x3d3e698c	0.046487376
138	0x3dea8bb0	0.114524245
139	0x3c8824e8	0.01661916
140	0x3c1ccf12	0.009570854
141	0xbdd43ca4	-0.10363129
142	0xbd6f63ac	-0.058444664
143	0xbbf990aa	-0.0076161223
144	0x3ca80126	0.02050836
145	0xbd27d074	-0.04097028
146	0xbd887796	-0.06663434
147	0xbde8e0d9	-0.11371011
148	0x3d836e6e	0.06417547
149	0xbdbeb60d	-0.09312067
150	0xbd4be33c	-0.049777254
151	0x3d4757f3	0.04866786
152	0x3d2c3e57	0.04205164
153	0x3d68d05a	0.056839325
154	0xbbe83d67	-0.007087398
155	0xbcd0c4a4	-0.02548439
156	0xbcb1826f	-0.02166864
157	0xbdec5bc4	-0.115409404
158	0xbd10d64f	-0.03536063
159	0xbd8c03ad	-0.068366386
160	0x3da591ec	0.08084473
161	0xbde79c4d	-0.11309109
162	0xbd80f96f	-0.06297576
163	0xbd1282a4	-0.03576912
164	0xbd751a47	-0.059839513
165	0x3d81e997	0.06343382
166	0xbda55531	-0.080728896
167	0xbd58b8b5	-0.052910525
168	0xbd06aeb2	-0.032881446
169	0xbd226360	-0.039645553
170	0x3de4c4e1	0.11170364
171	0xbd7e7628	-0.0621244
172	0xbc667370	-0.014065608
173	0xbddfdd90	-0.109309316
174	0x3cc8b569	0.024500566
175	0x3d3cd1fb	0.04609869
176	0x3d977b27	0.07396536
177	0xbd61f6a6	-0.055166863
178	0x3d6074a3	0.054798733
179	0xbdde9629	-0.108684845
180	0xbd86f393	-0.06589427
181	0x3d0cfe77	0.034422364
182	0x3d8a0a05	0.06740192
183	0x3dd26d2b	0.102747284
184	0x3cf6bc86	0.030119192
185	0x3d8b3ccc	0.067987055
186	0xbdeab6c0	-0.11460638
187	0xbd3ed374	-0.046588376
188	0xbdca478d	-0.098769285
189	0x3d174b82	0.036937244
190	0xbde0cd3f	-0.109766476
191	0x3da0ba4c	0.07848033
192	0x3d4847cd	0.0488966
193	0xbce4ec24	-0.027944632
194	0x3ddc5e58	0.10760182
195	0x3d9fe265	0.07806853
196	0xbcff8d90	-0.031195432
197	0xbd70d850	-0.05880004
198	0xbd62b764	-0.055350676
199	0x3da84093	0.082154416
200	0xbd7c9f3b	-0.06167529
201	0xbd74f4d7	-0.05980381
202	0x3d385c22	0.04500974
203	0x3d90e694	0.07075229
204	0x3c8ed590	0.017435819
205	0xbde64aa4	-0.11244705
206	0xbbae3cd3	-0.0053173094
207	0x3af687d0	0.0018808786
208	0x3d4755bc	0.048665747
209	0xbdae2310	-0.085027814
210	0x3ba534cb	0.005041694
211	0x3bbd9364	0.0057853926
212	0xbdefd73b	-0.11710974
213	0x3ddb4daa	0.107081726
214	0xbd1cbc4d	-0.038265515
215	0xbd10bf07	-0.035338428
216	0xbdd5053e	-0.104013905
217	0xbc029957	-0.007971129
218	0x3cc56801	0.024097444
219	0xbd9edaff	-0.07756614
220	0x3d87120d	0.0659524
221	0xbdcd802f	-0.10034215
222	0xbc96f63c	-0.01842796
223	0x3d2f8c42	0.04285837
224	0xbda8cbf1	-0.08242024
225	0xbc7641aa	-0.015030304
226	0x3bae2ee9	0.0053156507
227	0xbd8f0e6f	-0.06985175
228	0x3d4bcfc0	0.049758673
229	0xbd26fef2	-0.04077048
230	0x3cabd6bb	0.020976415
231	0xbd231d4d	-0.039822865
232	0x3d2c8556	0.042119347
233	0x3c4683af	0.012116357
234	0xbc848a97	-0.016179366
235	0xbd22a646	-0.039709352
236	0xbd13e9af	-0.03611153
237	0xbd33baa0	-0.04387915
238	0xbadc914d	-0.0016827971
239	0xbd842398	-0.064521015
240	0xbd7ae018	-0.06124887
241	0xbda3bc40	-0.0799489
242	0x3dd6f82c	0.10496554
243	0xbdb1ffda	-0.08691378
244	0xbcb48781	-0.02203727
245	0x3daa99fa	0.0833015
246	0xbcf12ed8	-0.029441282
247	0x3c2263ac	0.009911459
248	0xbdbc0f27	-0.091825776
249	0xbcfe5414	-0.031045951
250	0x3d924e38	0.07143825
251	0x3dafe3c8	0.08588368
252	0x3d74df5a	0.059783317
253	0xbdae326e	-0.085057124
254	0xbdeb6e66	-0.11495666
255	0xbca84963	-0.020542806

bias f4 [6]
0	0xbd7b1d60	-0.06130731
1	0xbddd222f	-0.10797536
2	0x3db2f445	0.08737997
3	0xbd8178c2	-0.06321861
4	0x3d418afd	0.04725169
5	0x3db618e4	0.08891466

weight f4 [16, 6, 5, 5]
0	0x3c0501d9	0.008118116
1	0xbd821561	-0.06351734
2	0xbd9452db	-0.07242366
3	0xbd118663	-0.03552855
4	0xbc7e5e1a	-0.015525365
5	0xbce447c7	-0.027866257
6	0xbd9e264c	-0.07722148
7	0x3cd58fad	0.026069487
8	0xbd07a171	-0.033112947
9	0x3cc906b4	0.02453933
10	0xbd7d6e5b	-0.06187282
11	0x3d404cb6	0.046948157
12	0x3d0b9b2a	0.034083523
13	0xbd471fbf	-0.04861426
14	0xbc7e499f	-0.015520482
15	0xbd1671cb	-0.036729615
16	0x3bf8e717	0.0075959074
17	0xbd765f8a	-0.060149707
18	0xbc8c48c9	-0.01712455
19	0x3c2f1990	0.010687247
20	0x3d1b1bc7	0.037868287
21	0x3d8d081a	0.06886311
22	0x3cc02c22	0.023458544
23	0xbd9dab6f	-0.07698714
24	0x3cb3aa82	0.02193189
25	0xbd530577	-0.051518884
26	0xbd5093e9	-0.050922308
27	0xbcb2749f	-0.021784125
28	0x3d5fbc68	0.054623038
29	0xbd6e44d1	-0.058171097
30	0xbd8d57b6	-0.06901495
31	0xbd8843fe	-0.066535935
32	0x3d80709a	0.06271477
33	0xbbc5f35c	-0.0060409736
34	0xbd3ac6e3	-0.04559983
35	0x3d5deb04	0.054179206
36	0x3c95964a	0.01826014
37	0x3d1aa3e0	0.03775394
38	0xbc1bf4ad	-0.0095187845
39	0x3d7e4800	0.062080383
40	0xbce4ae00	-0.027915
41	0x3d1be67f	0.038061615
42	0x3d879075	0.0661935
43	0xbb665152	-0.0035143686
44	0xbcd6a312	-0.026200805
45	0xbd0e2714	-0.034705237
46	0xbbf5bd28	-0.007499356
47	0x3c191154	0.00934251
48	0x3c871f44	0.0164944
49	0x3c99b16f	0.018761365
50	0xbd9930a0	-0.074799776
51	0xbc373441	-0.011181892
52	0x3d9d03c9	0.076667376
53	0xbd9720ba	-0.07379289
54	0x3ce12235	0.027482131
55	0xbcfedf98	-0.031112477
56	0x3d98e6eb	0.07465919
57	0xbd0939a8	-0.03350225
58	0x3ccb5d34	0.024824716
59	0xbd8d5214	-0.06900421
60	0xbb80db62	-0.0039324025
61	0xbd6131e2	-0.054979213
62	0xbd019a33	-0.031641196
63	0xbc3ddabc	-0.011587795
64	0x3c852e19	0.016257333
65	0x3d3111e2	0.043229945
66	0x3cd36b01	0.02580786
67	0xba712160	-0.00091983937
68	0x3cdc47db	0.026889732
69	0x3d1b4acd	0.037913132
70	0x3c3ba387	0.011452562
71	0x3d3ed042	0.04658533
72	0xbc0bcf4b	-0.008533309
73	0x3c51d5bf	0.012807309
74	0xbd9c67d0	-0.07636988
75	0xbd92d6bf	-0.07169866
76	0x3d5f4005	0.054504413
77	0x3d9a56ab	0.07536062
78	0x3d98764a	0.07444437
79	0x3d321c3e	0.043483965
80	0xbd849abe	-0.06474827
81	0xbd897036	-0.06710856
82	0xbc5b2c72	-0.013377296
83	0xbd9521ab	-0.07281812
84	0x37cedc0a	2.4659577e-05
85	0xbd1ac5c2	-0.037786253
86	0x3d3b47b5	0.045722682
87	0xbd151d14	-0.036404684
88	0x3c79b3b1	0.015240596
89	0x3d9e64fd	0.07734106
90	0x3ccd07b1	0.025028082
91	0xbc71a066	-0.014747715
92	0x3d5be679	0.053686593
93	0x3cfe1292	0.031014714
94	0xbd324e5b	-0.043531757
95	0x3ce7de77	0.028304322
96	0x3d440331	0.047854606
97	0x3c5ba702	0.013406517
98	0xbda5507e	-0.08071993
99	0x3bc691ae	0.006059847
100	0xbcced727	-0.025249077
101	0xbd6eaa56	-0.058267914
102	0x3d918124	0.0710471
103	0x3c9685b3	0.0183743
104	0xbc0edabf	-0.008719145
105	0x3d8cf8bf	0.06883382
106	0x3b06a8fd	0.0020547502
107	0x3d523894	0.05132349
108	0x3d1ffaf2	0.03905768
109	0xbd7e1d0e	-0.062039427
110	0xbd5bef54	-0.053695038
111	0xbd9cfe11	-0.07665647
112	0x3d603fae	0.05474823
113	0x3d0d5fad	0.03451507
114	0xbcbac76a	-0.022800166
115	0xbd5112cb	-0.051043313
116	0x3d8a4bb6	0.06752722
117	0xbd4f6a03	-0.05063821
118	0x3c9e36f3	0.019313311
119	0xbcc24a03	-0.023716932
120	0xbcba2a75	-0.022725323
121	0xbda2017f	-0.079104416
122	0x3d736f8b	0.059432548
123	0x3d149967	0.03627911
124	0xbd47c22d	-0.048769165
125	0xbd8a60ea	-0.06756766
126	0xbd4ba5c1	-0.049718622
127	0xbba21a5a	-0.004946989
128	0xbc9db4f2	-0.01925132
129	0x3d8c7211	0.06857694
130	0xbc36318e	-0.011120213
131	0xbd6d1132	-0.057877727
132	0xbcfc3b83	-0.030790096
133	0x3d9206d7	0.07130211
134	0x3d654825	0.055977006
135	0xbd9563e2	-0.07294442
136	0x3c2bb8e9	0.010481098
137	0x3d47e34e	0.04880076
138	0x3d9ec5db	0.07752582
139	0x3d78f0db	0.060776573
140	0xbc1d95a0	-0.009618193
141	0xbd5369fd	-0.05161475
142	0xbd376e0d	-0.044782687
143	0xbcac0f24	-0.021003313
144	0x3d560c79	0.05225799
145	0x3d17a1fe	0.037019722
146	0xbbba6f67	-0.0056895497
147	0x3c010f25	0.007877146
148	0x3c5e838e	0.01358117
149	0xbbc7981c	-0.006091131
150	0xbc1bf8e7	-0.009519792
151	0x3d57be13	0.052671503
152	0x3da8469d	0.082165934
153	0x3d8d1bdf	0.068900816
154	0xbd53ad8b	-0.051679175
155	0x3b96e9f1	0.0046055247
156	0x3d93050f	0.07178699
157	0x3d9b8af6	0.07594864
158	0x3d768716	0.06018742
159	0x3d32ab48	0.043620378
160	0xbd791697	-0.06081256
161	0xbd27cb85	-0.040965576
162	0xbd089bf7	-0.033351865
163	0x3d81189d	0.06303523
164	0x3d6a7139	0.057236884
165	0xbcf3eb40	-0.029775262
166	0x3d2b34b0	0.041798294
167	0xbb6d9ad7	-0.0036255622
168	0xbc171e4b	-0.009223531
169	0x3d0f4214	0.034975126
170	0xbd9d944a	-0.076942995
171	0x3d94a27a	0.072575524
172	0x3d7c9522	0.06166566
173	0x3d089de3	0.033353698
174	0xbd07e1d7	-0.033174362
175	0x3d137de6	0.036008738
176	0x3bc14bc0	0.0058989227
177	0x3d0222b9	0.031771395
178	0x3d2d7678	0.04234931
179	0x3ce5a1d4	0.028031267
180	0x3d0cfc22	0.03442014
181	0xbd571f09	-0.05251983
182	0x3c3cc648	0.011521883
183	0x3ca6a9d7	0.020344658
184	0xbd7d499b	-0.061837774
185	0xbd70c8a3	-0.058785092
186	0xbd5f7a8a	-0.05456022
187	0xbd97492a	-0.07387002
188	0x3d48b939	0.049004767
189	0x3d97a99e	0.07405399
190	0x3b286682	0.0025695865
191	0x3c59843f	0.013276159
192	0x3bc6b3c1	0.006063909
193	0xbd9cb670	-0.07651985
194	0x3d27e984	0.040994182
195	0x3c883289	0.01662566
196	0xbcc3fe31	-0.023924919
197	0xbbbcc2bf	-0.00576052
198	0x3d36755c	0.044545516
199	0x3bf9017c	0.007599054
200	0xbd1c1336	-0.03810426
201	0xbd769e38	-0.060209483
202	0xbd548f2c	-0.05189435
203	0x3d89d339	0.06729741
204	0xbd1f2d36	-0.038861476
205	0x3d034d4c	0.032056138
206	0xbd30d7b8	-0.043174475
207	0xba556a8c	-0.0008141182
208	0xbd5e0d37	-0.05421182
209	0x3d0bac4c	0.034099862
210	0x3cb550dd	0.022133285
211	0x3d9e1ddd	0.0772054
212	0xba879029	-0.0010342646
213	0x3da27fd0	0.079345345
214	0x3d15bd23	0.036557328
215	0x3d03cb3f	0.032176252
216	0xbd7fc86c	-0.062446997
217	0x3d9577f5	0.072982706
218	0x3cef7311	0.029229673
219	0x3cbcb3fa	0.023035038
220	0x3d509bb8	0.050929755
221	0x3c255650	0.010091379
222	0x3d9d0826	0.0766757
223	0x3d88cce7	0.06679707
224	0x3cc21842	0.023693208
225	0x3d8b6a12	0.06807341
226	0xbd35cfcf	-0.044387635
227	0xbd826539	-0.06366963
228	0xbd9150bb	-0.07095476
229	0xbd8590c8	-0.065217555
230	0xbd16fb95	-0.03686102
231	0xbaacb429	-0.001317625
232	0x3d809ff6	0.0628051
233	0xbd6405f2	-0.055669732
234	0xbda3a30c	-0.07990083
235	0x3be06909	0.0068484587
236	0x3d36f10a	0.044663467
237	0xbd83f305	-0.06442837
238	0xbd9eab67	-0.07747536
239	0x3da45601	0.080242164
240	0xbc477c17	-0.012175581
241	0xbc859048	-0.01630415
242	0x3d8937c4	0.067000896
243	0x3cdae61f	0.026721058
244	0xbcf8980b	-0.030345937
245	0x3bd626e7	0.0065353992
246	0x3d5bd1c4	0.053666845
247	0xbc8b1020	-0.016975462
248	0x3d1f1d6b	0.038846415
249	0xbbb8efb1	-0.005643808
250	0xbd91b678	-0.07114881
251	0x3d58a4a5	0.052891392
252	0xbd839794	-0.064253956
253	0x3d268281	0.040651802
254	0x3cf82296	0.03028993
255	0x3c4059bf	0.011740147

bias f4 [16]
0	0xbd0c5e0e	-0.034269385
1	0x3d81f706	0.06345944
2	0xbda48cdb	-0.080346785
3	0xbd262baf	-0.040569004
4	0x3d9075c7	0.07053714
5	0xbcc63b8a	-0.024198312
6	0xbd597410	-0.0530892
7	0x3d2b752f	0.0418598
8	0xbd9eac3f	-0.07747697
9	0x3cb949fd	0.022618288
10	0xbd86dcbb	-0.0658507
11	0xbc3a2f1e	-0.011363773
12	0x3d0de7a0	0.034644723
13	0x3d969d5b	0.07354232
14	0xbb8bb758	-0.0042637996
15	0xbbb23d2f	-0.0054394226

weight f4 [120, 400]
0	0xbd0919a7	-0.03347173
1	0xbc81a0ae	-0.015823688
2	0x3c43847e	0.011933444
3	0x3c3c4fdd	0.01149365
4	0x3c9ae94a	0.018910069
5	0xbd424fe6	-0.04743948
6	0xbd1b4cbb	-0.037914973
7	0x3ca8e4a3	0.020616835
8	0x3d462812	0.048378058
9	0xbb177700	-0.00231117
10	0xbd1dcf95	-0.038528044
11	0xbb6eddea	-0.003644819
12	0xbc0bda38	-0.008535914
13	0x3d13dfa7	0.036101963
14	0xbc2ec6cb	-0.010667513
15	0xbd27f52b	-0.041005295
16	0x3d4410dc	0.04786764
17	0xbc6408e2	-0.013918133
18	0xbcbd18d2	-0.023083124
19	0xbc90e8db	-0.01768916
20	0xbd28adb3	-0.041181277
21	0xbb877804	-0.00413418
22	0x3d1e53c6	0.03865411
23	0x3d1ae740	0.037818193
24	0xbcde3e2e	-0.027129259
25	0xbccbf5c0	-0.024897456
26	0xbbc17664	-0.005904006
27	0xbcaaa4ce	-0.020830538
28	0xbcedb42f	-0.029016582
29	0xbbe98e97	-0.0071275937
30	0xbd44adbb	-0.048017245
31	0x3cf5980e	0.029979732
32	0x3d129b79	0.0357928
33	0xbc31fe2c	-0.010863822
34	0x3d3f44a7	0.04669633
35	0xbd20e48e	-0.039280467
36	0xbd01e812	-0.03171546
37	0x3ce5e450	0.02806297
38	0xbc526602	-0.012841703
39	0x3c59ec0b	0.013300906
40	0x3c0bb528	0.008527078
41	0x3c1bce1f	0.009509592
42	0x3c4fbf99	0.012679958
43	0x3d46fe32	0.048582263
44	0x3cbe9348	0.023263589
45	0x3d24731a	0.040148832
46	0x3b99904a	0.00468639
47	0x3d06243b	0.032749396
48	0xbd248dfa	-0.040174462
49	0xbcfb4956	-0.030674618
50	0x3c00113a	0.007816607
51	0xbca2c42a	-0.019868929
52	0xbd1ab695	-0.03777178
53	0xbc42ee00	-0.011897564
54	0x3af4619a	0.001864481
55	0x3cb10203	0.021607405
56	0xbd1a3b4f	-0.037654217
57	0xbd1f5be2	-0.038905986
58	0x3cd111cd	0.025521183
59	0xbd3ce748	-0.046119004
60	0xbd44779b	-0.047965627
61	0xbc372c7a	-0.011180038
62	0x3c194200	0.0093541145
63	0x3d2af6b3	0.041739177
64	0xbcc56ef7	-0.024100764
65	0x3d32821f	0.043581124
66	0xbc9af4e0	-0.018915594
67	0x3d2ba157	0.041901913
68	0x3b870f4d	0.004121697
69	0x3c9f4627	0.019442631
70	0xbd284dc5	-0.04108979
71	0xbd38b8cb	-0.045098107
72	0xbb69219a	-0.0035573007
73	0x3c206e4d	0.009791923
74	0x3cb2c2aa	0.021821339
75	0x3b45711e	0.0030127238
76	0xbc13d316	-0.009022495
77	0xbd38212e	-0.044953518
78	0xbce84697	-0.028353972
79	0xbbda049c	-0.0066533815
80	0xbd21012b	-0.039307754
81	0xbd150b57	-0.036387768
82	0x3d2e47a0	0.042548776
83	0x3d2ff741	0.04296041
84	0xbccbe9ec	-0.024891816
85	0xbd197d25	-0.037472863
86	0x3cde4cd0	0.027136236
87	0xbbc664bc	-0.006054489
88	0xbd2ed225	-0.04268088
89	0x3d0a9e2e	0.03384226
90	0xbca03368	-0.019555762
91	0x3d224cf1	0.03962416
92	0xbc559376	-0.013035646
93	0xbb38a38d	-0.0028173656
94	0x3cdc8df4	0.026923157
95	0x3c633c6c	0.013869386
96	0xbd0a93f4	-0.033832505
97	0xbccb44f9	-0.024813162
98	0x3ce717fd	0.02820968
99	0xbc2fc962	-0.010729166
100	0xbc5831a0	-0.013195425
101	0x3c952797	0.018207354
102	0x3d003517	0.03130063
103	0x3d358ed5	0.04432567
104	0x3d231895	0.039818365
105	0xbcf3a32a	-0.029740889
106	0xbd2c6edf	-0.042097922
107	0xbcd10a9a	-0.02551775
108	0x3ca165b0	0.019701809
109	0x3c25f6ab	0.010129611
110	0x3d3c3fe3	0.045959365
111	0x3d1d2759	0.038367603
112	0xbaa9d849	-0.0012958135
113	0xbaf37de5	-0.0018576948
114	0xbb4e457c	-0.0031474521
115	0xbd068a8c	-0.032846972
116	0x3cf086ce	0.029361155
117	0xbd39ffde	-0.04541003
118	0xbd215df3	-0.039396238
119	0xbc912fe3	-0.01772303
120	0xbc75ab8a	-0.014994511
121	0xbb94046d	-0.004517129
122	0x3ca1b7b1	0.019740911
123	0xbb8311dc	-0.0039999317
124	0x3d4623bc	0.048373923
125	0xbc9ce3e4	-0.019151635
126	0x3b47c9ad	0.0030485198
127	0x3c91cfea	0.017799336
128	0xbc67a68d	-0.01413883
129	0x3c8cba79	0.01717876
130	0x3b8053ff	0.003916263
131	0x3d4c130a	0.049822845
132	0x3cc679d4	0.024228014
133	0x390d540d	0.00013478119
134	0xbca16e50	-0.019705921
135	0xbd357a26	-0.044305943
136	0xbc0d70e4	-0.008632872
137	0xbcdd231f	-0.026994286
138	0xbcd4589a	-0.025921155
139	0xbc3606ef	-0.011110052
140	0xbc8f553e	-0.017496701
141	0xbd2c154d	-0.0420125
142	0x3d0f85f0	0.035039842
143	0xbcb073ca	-0.021539588
144	0xbb3ad155	-0.002850612
145	0x3c50201b	0.012702967
146	0xbd3be815	-0.045875628
147	0xbcadde4b	-0.021224162
148	0xbd247dde	-0.0401591
149	0x3c0cb126	0.008587157
150	0xbc862b11	-0.016377958
151	0x3d47bc6a	0.04876367
152	0x3d3ef015	0.04661568
153	0xbb5d43f0	-0.0033762418
154	0xbc7f728c	-0.015591275
155	0x3c12210f	0.008919015
156	0x3d0dc8d5	0.034615356
157	0x39ee4d3c	0.00045452442
158	0x3cc3b010	0.023887664
159	0x3d0feb67	0.035136607
160	0x3cb92a6e	0.02260324
161	0xbc933e3f	-0.017974017
162	0x3c68e72e	0.014215274
163	0xbc207363	-0.009793135
164	0x3cb9fc9a	0.022703458
165	0x3c8ff084	0.017570741
166	0x3bbad3a1	0.0057014977
167	0x3c412390	0.011788264
168	0xbd2cc453	-0.042179417
169	0x3d06aca2	0.03287948
170	0x3d3d3827	0.04619613
171	0xbbe71f4d	-0.007053292
172	0x3ba01849	0.0048857075
173	0x3d298cbf	0.04139399
174	0xbb2335cd	-0.0024903894
175	0xbd32a193	-0.04361112
176	0x3cfa775e	0.030574497
177	0x3c641a64	0.013922308
178	0x3c910edd	0.017707283
179	0x3d403bf3	0.046932172
180	0xbd0d4019	-0.034484956
181	0xbc8516c9	-0.016246216
182	0xbd266799	-0.040626142
183	0xbc1fe591	-0.009759323
184	0xbd0f86fc	-0.03504084
185	0x3cb752e9	0.022378402
186	0xbd46dd18	-0.048550695
187	0x3c5dff82	0.013549687
188	0x3cb9c736	0.022677999
189	0xbd4c5fac	-0.049895927
190	0x3cc05523	0.023478096
191	0xbd1686b6	-0.036749564
192	0x3cb3f357	0.02196662
193	0xbd2481b3	-0.040162753
194	0x3d34e780	0.044166088
195	0x3d031ae5	0.03200807
196	0xbd1ecfef	-0.03877252
197	0x3b94c964	0.004540609
198	0xbd1d3f4e	-0.03839045
199	0x3c33b502	0.010968449
200	0xbbcdcc38	-0.0062804483
201	0x3d2098e5	0.03920831
202	0x3c302c87	0.010752804
203	0xbd3e8c9a	-0.046520807
204	0xbcebe557	-0.028795881
205	0x3cd26c4a	0.025686402
206	0xbd305dfa	-0.043058373
207	0xbcfd69d3	-0.03093425
208	0x3d376397	0.04477271
209	0xbd387408	-0.04503253
210	0x3d283bde	0.04107272
211	0xbd280e6b	-0.041029375
212	0xbcc72063	-0.024307435
213	0xbc8a10ad	-0.016853655
214	0xbd2a92d3	-0.04164393
215	0x3b02c438	0.0019953381
216	0x3d118e87	0.035536315
217	0xbbeb2c4d	-0.007176912
218	0x3d37cc4a	0.04487256
219	0x3d1a2e63	0.037641894
220	0xbc8a53ed	-0.016885722
221	0x3cfa3a9a	0.030545522
222	0x3d480198	0.048829645
223	0xbbd47300	-0.0064834356
224	0x3d43ca08	0.047800094
225	0x3c0fcd45	0.008776967
226	0x3d2153ea	0.039386667
227	0x3d00ff4f	0.03149348
228	0xbbe1c937	-0.0068904418
229	0x3d0aa78e	0.0338512
230	0xbd1a99f9	-0.037744496
231	0xbc55497c	-0.013018008
232	0xbc554899	-0.013017797
233	0xbd07e2bc	-0.033175215
234	0x3d14c901	0.036324505
235	0xbcd9956f	-0.026560513
236	0xbb58cf6d	-0.003308262
237	0x3c172855	0.0092259245
238	0x3d1f4d05	0.03889181
239	0x3c722c73	0.014781105
240	0x3cb9ebc7	0.022695435
241	0x3d2afacd	0.04174309
242	0xbc4ef6d4	-0.012632091
243	0xbd0b892e	-0.03406637
244	0x3b36bcf9	0.0027883633
245	0xba339c9b	-0.0006851644
246	0xbc809f62	-0.015701
247	0xbd238ec7	-0.039931085
248	0xbd10602f	-0.035247978
249	0xbc154cce	-0.00911255
250	0x3a1b1e7d	0.0005917324
251	0x3d4d60a8	0.050141007
252	0x3cdf3208	0.027245536
253	0x3d04365d	0.032278407
254	0x3c0c13ca	0.00854964
255	0xbb8416cd	-0.0040310384

bias f4 [120]
0	0xbd275c8e	-0.04085975
1	0xbc0bb093	-0.008525985
2	0xbb80a3ef	-0.0039257924
3	0x3d049974	0.032372907
4	0x3cdb5816	0.026775401
5	0x3cdcd899	0.02695875
6	0x3c252445	0.010079448
7	0xbc94cc46	-0.018163811
8	0x3d3b1f17	0.045683946
9	0xbcb5dbef	-0.0221996
10	0x3c8c7f27	0.017150475
11	0x3c841c2d	0.016126717
12	0x3b0af947	0.002120571
13	0x3d652d62	0.055951484
14	0x3c9db0c8	0.019249335
15	0x3d0b7a48	0.034052163
16	0x3d2d0a7b	0.042246323
17	0x3c65a7b3	0.014017033
18	0xbd09f2e6	-0.03367891
19	0x3d0a2dbf	0.033735033
20	0x3cbc92be	0.02301919
21	0xbafe44c5	-0.0019399157
22	0xbd49539c	-0.049152
23	0xbd0cef12	-0.034407683
24	0xbcad2f71	-0.021140786
25	0x3c84568b	0.016154548
26	0x3c9705a4	0.018435307
27	0xbc551440	-0.013005316
28	0x3c8593f5	0.016305903
29	0xbd071b29	-0.032984886
30	0xbcd359ee	-0.025799718
31	0xbabc292c	-0.0014355532
32	0x3c8f0770	0.017459601
33	0xbcca70cd	-0.02471199
34	0x3d74aec6	0.05973699
35	0xbd36e2d6	-0.04464992
36	0xbc313284	-0.0108152665
37	0x3c3c46a4	0.011491451
38	0xbd028cba	-0.03187249
39	0xbc0d0a79	-0.008608454
40	0x3c8021fb	0.015641203
41	0xbd3cd786	-0.046103977
42	0xbc815ec9	-0.015792267
43	0x3d3ed54d	0.04659014
44	0xbd3a2383	-0.045444023
45	0xbbaab4b1	-0.0052095284
46	0xbc5b7267	-0.013393975
47	0x3d2d0de1	0.042249564
48	0x3d0e2c9f	0.034710523
49	0xbb2ff7d4	-0.0026850598
50	0xbc485227	-0.012226618
51	0xbc683219	-0.0141721
52	0xbd295281	-0.041338447
53	0xbc069448	-0.008214064
54	0x3cc9c70b	0.024631044
55	0x3cfa1343	0.030526763
56	0x3d465de0	0.04842937
57	0x3cf8b3a0	0.03035909
58	0xbb4657de	-0.0030264775
59	0x3cd0087d	0.025394673
60	0x3d297323	0.04136957
61	0xbd505a7b	-0.05086754
62	0xbd03f400	-0.03221512
63	0xbcea4cf3	-0.028601145
64	0x3d49fd4e	0.049313836
65	0xbc3bcf56	-0.011463007
66	0x3c1e6e70	0.009669885
67	0x3a269366	0.00063543615
68	0xbc5e125a	-0.01355418
69	0x3d031d1e	0.03201019
70	0xbc79d05f	-0.015247433
71	0xbd08ef0c	-0.033431098
72	0xbca1ceaa	-0.019751865
73	0x3d41e3ee	0.04733651
74	0xbd149f8e	-0.036284976
75	0xbc376bd4	-0.011195142
76	0x3b3d3aba	0.0028874115
77	0x3c28d559	0.010304772
78	0x3bf716c1	0.0075405543
79	0xbbdc232a	-0.006718059
80	0xbc921fb0	-0.017837375
81	0x3d229892	0.039696284
82	0xbc822085	-0.015884647
83	0x3b961afa	0.0045808526
84	0xbcdc8e03	-0.026923185
85	0x3b8109db	0.0039379424
86	0xbc87d4a5	-0.016580889
87	0xbca0824b	-0.019593379
88	0x3c8721b6	0.016495567
89	0xbbf736ea	-0.007544388
90	0x3cee4d69	0.029089646
91	0xbcaaf5ad	-0.0208691
92	0x3d43208e	0.04763847
93	0x3cc4dae7	0.024030162
94	0x3d3a2db4	0.045453742
95	0xb95ee9cf	-0.0002125867
96	0x3d15e92d	0.036599327
97	0x3d0c41f9	0.034242604
98	0xbce439be	-0.027859565
99	0x3d615c08	0.05501941
100	0x3baf6446	0.0053525297
101	0x3ce02c56	0.027364891
102	0x3d3bbe6d	0.0458359
103	0x3d414870	0.047188222
104	0xbc0d128c	-0.008610379
105	0x3cc445fe	0.023959156
106	0x3d2087b4	0.039191917
107	0xbd08139f	-0.033221837
108	0x3d308571	0.04309601
109	0xbb379d47	-0.0028017329
110	0xbc829501	-0.015940191
111	0xbc7f4760	-0.015580982
112	0x3c775844	0.015096728
113	0xbc9655aa	-0.018351395
114	0x3d66d12a	0.05635182
115	0x3ccc08d3	0.024906551
116	0xbcf3b500	-0.029749393
117	0x3cb9e1b3	0.02269063
118	0x3bdffb32	0.0068353647
119	0x3d0d62aa	0.03451792

weight f4 [84, 120]
0	0xbd869390	-0.06571114
1	0xbc17bea1	-0.009261758
2	0x3d055a3f	0.03255677
3	0x3c173e71	0.009231196
4	0xbc826a1c	-0.015919738
5	0xbd2ffeeb	-0.042967718
6	0x3cb6116b	0.022225102
7	0xbda44b45	-0.08022169
8	0x3cd33366	0.025781345
9	0xbda57062	-0.08078076
10	0x3d613139	0.054978583
11	0xbccba0c9	-0.024856942
12	0xbd7003c6	-0.05859735
13	0xbd7d9893	-0.061913084
14	0xbda9b615	-0.082866825
15	0xbd66f851	-0.056389157
16	0xbd63a810	-0.0555802
17	0x3d67002f	0.05639666
18	0xbd8c4928	-0.06849891
19	0x3b7ee666	0.0038894652
20	0x3bb707e2	0.0055856565
21	0x3d6f1042	0.058365114
22	0x3db663b8	0.089057386
23	0x3da20803	0.07911684
24	0xbd9a9b5e	-0.07549165
25	0x3d2035b6	0.039113723
26	0x3d5eb283	0.05436946
27	0xb9e22e4e	-0.0004314058
28	0x3d822f39	0.06356663
29	0xbd139441	-0.036030058
30	0xbd9e39a4	-0.07725838
31	0x3b8e218e	0.004337496
32	0xbd06a168	-0.032868773
33	0x3d113d38	0.035458773
34	0x3d2ed46c	0.04268305
35	0xbb5914e1	-0.0033124017
36	0x3cbad875	0.022808293
37	0xbcd3ba2c	-0.02584561
38	0xbd95513c	-0.07290885
39	0xbd055c5d	-0.032558788
40	0xbc877013	-0.016532933
41	0xbd13ab02	-0.036051758
42	0xbd90c50c	-0.07068834
43	0xbcfd94d3	-0.030954754
44	0xbc4b089f	-0.012392192
45	0x3af4fa9b	0.0018690409
46	0xbd4d928e	-0.050188594
47	0x3db0d6f0	0.08634746
48	0xbcb79722	-0.022410933
49	0xbbb78732	-0.0056008333
50	0xbd0b15ff	-0.033956524
51	0x3c9a2668	0.018817142
52	0x3d285146	0.041093133
53	0x3d0ea992	0.034829684
54	0x3d93e00a	0.072204664
55	0xbcd80183	-0.026367908
56	0xbd37325e	-0.04472577
57	0xbd4791d5	-0.04872306
58	0x3cf54663	0.02994079
59	0x3d030e78	0.03199622
60	0xbdadf836	-0.08494608
61	0x3daaffec	0.083495945
62	0xbdb31638	-0.08744472
63	0xbcdd3949	-0.027004855
64	0x3cd97cd8	0.026548788
65	0x3ccc245e	0.024919685
66	0xbd95ed76	-0.07320683
67	0xbc321d2c	-0.010871213
68	0xbd1b7450	-0.03795272
69	0x3daaf493	0.0834743
70	0xbd150a2a	-0.036386646
71	0xbd93ad49	-0.07210786
72	0xbb8a3f47	-0.004218969
73	0x3d9dfe9e	0.0771458
74	0xbd6ccc36	-0.05781194
75	0xbdacb4e4	-0.0843294
76	0x3d93d2dc	0.072179526
77	0x3da4a827	0.08039885
78	0xbd8c2758	-0.06843442
79	0x3cdb7abd	0.026791925
80	0x3d3363aa	0.04379622
81	0x3d177f8b	0.03698687
82	0x3cb2bb15	0.021817723
83	0x3d7aa5bf	0.061193224
84	0xbd53ea44	-0.051737085
85	0xbd8ed6f8	-0.06974596
86	0xbd55c107	-0.05218604
87	0xbd873b75	-0.066031374
88	0x3bc39c5c	0.005969567
89	0xbc9b1d7f	-0.018934963
90	0x3d799610	0.060934126
91	0x3d83b184	0.06430343
92	0xbd5d3997	-0.05401
93	0x3d101ccf	0.035183724
94	0xbd0b04fa	-0.033940293
95	0xbd33b8f9	-0.043877576
96	0x3d3a318e	0.045457415
97	0xbd9c333c	-0.0762696
98	0xbbf77cc7	-0.0075527164
99	0x3d7e1387	0.06203034
100	0xbcce178b	-0.02515771
101	0x3da69463	0.08133771
102	0x3da381bb	0.079837285
103	0xbd1e1925	-0.0385982
104	0xbcbc07eb	-0.022952994
105	0x3d7a1163	0.061051738
106	0x3daa3c80	0.08312321
107	0x3d99c750	0.07508719
108	0x3ca77ea5	0.020446131
109	0xb90bb9bf	-0.00013325269
110	0x3c00710f	0.007839455
111	0xbd276c7e	-0.04087495
112	0xbd641976	-0.055688344
113	0x3bea9ecc	0.0071600433
114	0x3d93731b	0.07199689
115	0x3b939c9d	0.0045047537
116	0xbca72cfc	-0.020407192
117	0xbd6978a7	-0.05699983
118	0xbd054ac3	-0.032542
119	0x3da1e464	0.0790489
120	0x3d027c41	0.03185678
121	0x3cbe3b67	0.023221685
122	0xbcbcef76	-0.023063403
123	0x3d4ea169	0.0504469
124	0xbd5b69f3	-0.053567838
125	0x3d2a4fcf	0.041580018
126	0x3bf59f01	0.0074957614
127	0x3c870262	0.016480628
128	0xbba0eb5f	-0.004910871
129	0x3d9e7238	0.07736629
130	0x3d73edf9	0.05955312
131	0x3da55c1e	0.080742106
132	0xbd828eb7	-0.06374877
133	0xbd15c2c3	-0.036562692
134	0x3d9148a4	0.07093933
135	0xbd26244b	-0.040561955
136	0xbb8293d1	-0.0039849062
137	0xbd8fa5b5	-0.07014028
138	0x3d9c4e9c	0.07632181
139	0x3c27043b	0.01019388
140	0x3d9516f1	0.07279766
141	0x3d7b6559	0.06137595
142	0x3c1dfad9	0.009642326
143	0x3d8884ad	0.06665931
144	0xbd80c697	-0.06287878
145	0xbd46027c	-0.048342213
146	0x3d380b3e	0.044932596
147	0xbc5d8e0a	-0.013522634
148	0x3d107b8a	0.035274066
149	0x3c95c8c7	0.018284215
150	0x3d9b0c64	0.07570723
151	0x3cfdf315	0.0309997
152	0x3d1e8f19	0.038710687
153	0xbb467d41	-0.003028706
154	0xbd8fdfbf	-0.07025098
155	0xbc8627ff	-0.016376493
156	0x3d86fd84	0.06591323
157	0xbd05d312	-0.032671995
158	0x3d5bd2ce	0.053667836
159	0xbdb49ffa	-0.088195756
160	0x3d94fff1	0.072753794
161	0xbda8fd31	-0.082514174
162	0x3c13685c	0.008997049
163	0x3c8068cd	0.015674973
164	0xbd54515a	-0.051835395
165	0xbdaa812c	-0.08325419
166	0x3cf9cddf	0.030493675
167	0xbd3ea626	-0.04654517
168	0xbcb4aded	-0.02205559
169	0xbca27562	-0.019831363
170	0xbc167e48	-0.009185381
171	0xbd804edb	-0.062650405
172	0xbc363b02	-0.011122467
173	0x3d14f715	0.03636845
174	0x3d2e5447	0.042560842
175	0x3d107b01	0.035273556
176	0xbb5bbb4d	-0.0033528388
177	0xbd911b23	-0.07085254
178	0xbda6c440	-0.081429005
179	0xbd61c5c4	-0.055120245
180	0xbd9854b0	-0.07438028
181	0x3c19f68c	0.00939716
182	0x3d8db167	0.069186024
183	0x3d625ac8	0.055262357
184	0x3d98679d	0.07441638
185	0x3d27b0a6	0.04093995
186	0xbbc3fdee	-0.0059811985
187	0x3d99cd23	0.0750983
188	0xbd9304a7	-0.07178622
189	0xbd068923	-0.032845628
190	0xbd409c57	-0.047024097
191	0xbd9f6f90	-0.07784951
192	0xbd5b51f9	-0.053544972
193	0xbd48ba33	-0.0490057
194	0x39f6846f	0.00047019447
195	0xbc178150	-0.009247139
196	0xbd575238	-0.052568644
197	0x3da81727	0.08207541
198	0x3ca8d4d7	0.020609302
199	0x3d73db73	0.059535455
200	0xbd76179a	-0.060081102
201	0x3da7d232	0.081943884
202	0xbdb294d4	-0.08719793
203	0x3bf051a0	0.007333949
204	0xbd92678f	-0.071486585
205	0xbc953d93	-0.018217837
206	0xbda46545	-0.08027128
207	0x3d855017	0.065094166
208	0x3d9c1fa2	0.07623221
209	0xbc302b65	-0.010752534
210	0xbcdb9f99	-0.0268095
211	0x3cf29bb8	0.029615268
212	0xbd5b6fbf	-0.053573366
213	0x3c05029e	0.0081183
214	0xbd02adcb	-0.031904023
215	0x3d4b54e1	0.049641494
216	0x3d4db4fb	0.050221425
217	0x3db6cc47	0.089256816
218	0x3c48c3b1	0.012253688
219	0xbcc466ab	-0.023974737
220	0xbb36c478	-0.00278881
221	0xbc5ce370	-0.01348196
222	0xbb96ea6e	-0.004605583
223	0x3d9ca80c	0.0764924
224	0x3d02673e	0.03183674
225	0xbce0dea5	-0.027449915
226	0x3d3f9703	0.046774875
227	0x3da9e691	0.0829593
228	0xbca3af7c	-0.019981138
229	0x3d804944	0.06263974
230	0x3d14982e	0.036277942
231	0xbdb1a896	-0.08674733
232	0x3d01faa6	0.031733178
233	0x3cabf2cc	0.020989798
234	0xbd974565	-0.07386283
235	0x3d0327cb	0.03202037
236	0x3d179fe4	0.037017718
237	0xbd783030	-0.06059283
238	0xbd4c063b	-0.04981063
239	0xbdc43914	-0.09581199
240	0xbd89b8a8	-0.067246735
241	0xbd641d7b	-0.055692177
242	0x3d7051f4	0.058671907
243	0xbda4d33c	-0.08048102
244	0x3d0f8641	0.035040144
245	0xbd4dc563	-0.05023707
246	0x3d81824f	0.063236825
247	0xbd7d302f	-0.06181353
248	0x3cd1b2d6	0.025597971
249	0x3aee23b6	0.0018168602
250	0xbd5935f8	-0.053029984
251	0x3ac1f887	0.0014798798
252	0x3c2ec6ba	0.010667497
253	0x3bce7722	0.006300823
254	0xbd128b75	-0.035777528
255	0xbb424333	-0.0029642105

bias f4 [84]
0	0xbc8e7ed0	-0.017394453
1	0x3d84cee5	0.064847745
2	0xbd9ccdb2	-0.07656421
3	0x3db76d12	0.089563504
4	0xbd376e8d	-0.044783164
5	0x3d53eca5	0.051739354
6	0xbcf56f62	-0.029960338
7	0x3d955669	0.07291872
8	0x3d5c7a46	0.053827547
9	0xbdb90a4b	-0.09035166
10	0x3d850257	0.06494587
11	0x3d769606	0.060201667
12	0x3c63dcc3	0.013907614
13	0xbd78a6b8	-0.06070587
14	0xbbf1a084	-0.0073738713
15	0xbc8d11a1	-0.01722032
16	0x3d92e23d	0.07172058
17	0x3de39a73	0.11113443
18	0xbda47ce1	-0.08031631
19	0xbd00ea5e	-0.03147351
20	0xbd848199	-0.06470031
21	0x3d83e7be	0.06440686
22	0x3d9ef4ad	0.07761512
23	0xbda4829e	-0.08032726
24	0xbd4b73fd	-0.049671162
25	0xbc50be0f	-0.012740626
26	0x3ca2395c	0.019802742
27	0xbb9f418c	-0.0048601087
28	0x3d9f04d3	0.07764592
29	0xbcfd0f7b	-0.03089117
30	0xbd04e280	-0.03244257
31	0xbd13a88f	-0.036049422
32	0x3c9c6a89	0.019093769
33	0xbd2b7604	-0.041860595
34	0x3c786d57	0.015162787
35	0x3d483268	0.048876196
36	0x3db37907	0.087633185
37	0x3dd8129e	0.10550426
38	0x3d8b863b	0.06812712
39	0xbdb966ff	-0.09052848
40	0xbd918a85	-0.07106499
41	0xbdab51ab	-0.08365186
42	0xbd97ad63	-0.07406118
43	0x3c61f2fb	0.013790841
44	0xbd96adee	-0.07357393
45	0xbdae905e	-0.085236296
46	0xbafef819	-0.0019452601
47	0xbda49dbf	-0.080379
48	0x3cf4b429	0.029871063
49	0x3d8c3ab5	0.06847135
50	0x3d0b9c7f	0.034084793
51	0x3d0c196a	0.034203924
52	0xbc41bc0c	-0.011824619
53	0x3ccee74a	0.025256772
54	0x3bf9322e	0.007604859
55	0x3cf4897e	0.029850718
56	0x3d06ae60	0.03288114
57	0xbda7e5ca	-0.08198126
58	0xbc2c9c53	-0.0105353175
59	0xbd527b62	-0.0513872
60	0x3c764903	0.015032056
61	0xbbe8884a	-0.007096325
62	0xbdb8dc19	-0.09026355
63	0x3d66ff0b	0.05639557
64	0x3dc2da5f	0.09514307
65	0xb9688ea4	-0.00022178382
66	0x3d90bd10	0.07067311
67	0xbc025186	-0.007954007
68	0xbd3fb4c7	-0.046803262
69	0x3d9a54d3	0.0753571
70	0x3db7c69c	0.089734286
71	0x3cbb7937	0.022884948
72	0xbb9f68b3	-0.004864776
73	0x3b8cbbed	0.0042948634
74	0x3db5fd91	0.088862546
75	0xbc31e8e4	-0.010858748
76	0xbd8b5f4b	-0.06805285
77	0xbcde9038	-0.027168378
78	0xbc1c0973	-0.009523737
79	0xbd83afd2	-0.064300194
80	0x3ce008fc	0.027348034
81	0x3ddc5350	0.10758078
82	0xbc8b58b2	-0.017010067
83	0x39c79e48	0.00038074167

weight f4 [10, 84]
0	0x3d4a3688	0.04936841
1	0xbdbd134d	-0.09232197
2	0xbd10c118	-0.0353404
3	0x3d13a7e7	0.036048796
4	0xbd42a7f9	-0.047523472
5	0xbdb7e16e	-0.08978544
6	0x3dacf992	0.08446039
7	0xbd9836af	-0.07432305
8	0xbc4e5114	-0.012592573
9	0xbdcc7017	-0.09982317
10	0x3ac7f259	0.001525472
11	0x3dda5734	0.10661164
12	0xba16dc99	-0.00057549175
13	0x3dacd235	0.08438531
14	0x3d7dfc02	0.06200791
15	0x3d9cb851	0.07652343
16	0xbd010548	-0.031499177
17	0xbd35fa34	-0.044428065
18	0x3ca0919a	0.019600678
19	0x3c875efd	0.016524786
20	0x3d9598d7	0.073045425
21	0x3d9db625	0.07700757
22	0x3d9929f6	0.074787065
23	0x3d08e629	0.033422623
24	0xbd5bcc4d	-0.053661633
25	0xbdab65db	-0.08369037
26	0xbd20391f	-0.039116975
27	0x3d5261fa	0.05136297
28	0x3da91a2f	0.08256947
29	0xbc104cbe	-0.008807359
30	0x3d5a8006	0.05334475
31	0xbc9e9c1b	-0.019361546
32	0x3d22be02	0.039731987
33	0xbdb4d4ad	-0.08829627
34	0x3dde9bc0	0.10869551
35	0xbdb640e6	-0.08899097
36	0x3dff65c2	0.12470581
37	0x3dd6ea6c	0.10493931
38	0xbda72a3c	-0.081623524
39	0x3d72267e	0.05911874
40	0x3dcd6f95	0.10031048
41	0xbd17ec1b	-0.037090402
42	0x3d0aaa33	0.03385372
43	0xbbfc9f4e	-0.0077094203
44	0xbcf040cc	-0.029327773
45	0x3c0183bc	0.007904943
46	0x3cf702f7	0.030152781
47	0x3d70f0c1	0.05882335
48	0xbc57dcf5	-0.013175239
49	0x3db25890	0.08708298
50	0x3b0987b3	0.0020985424
51	0xbdadad49	-0.08480317
52	0x3c8a011f	0.016846238
53	0xbdb721f0	-0.0894202
54	0x3dd00ec2	0.10159065
55	0x3de16160	0.11004901
56	0x3c33a9f6	0.010965815
57	0x3da5acdd	0.08089612
58	0xbda84dfe	-0.08218001
59	0x3d2b8474	0.041874364
60	0xbcaca77d	-0.021075958
61	0x3d133129	0.035935555
62	0x3dd1aae0	0.1023767
63	0x3dc2f42c	0.09519228
64	0x3de94159	0.11389417
65	0xbda7db56	-0.08196132
66	0xbd730265	-0.059328455
67	0xbcf1fd4a	-0.029539723
68	0x3ddfa183	0.10919478
69	0xbd6993ba	-0.05702565
70	0x3d6a815d	0.057252277
71	0xbd9e789f	-0.077378504
72	0xbdcdfb78	-0.100577295
73	0xbd84c48f	-0.06482803
74	0x3d7dc838	0.06195852
75	0x3cec4851	0.028843077
76	0xbb4b1f94	-0.0030994164
77	0x3da9018a	0.08252247
78	0xbdc7e345	-0.09760145
79	0x3d70d6cb	0.058798593
80	0x3d5d450a	0.05402092
81	0x3dc12c38	0.09432262
82	0xbdd734ad	-0.10508094
83	0xbdc07978	-0.09398168
84	0xbd0a6efd	-0.033797253
85	0xbcb54f4e	-0.022132542
86	0xbb42ddec	-0.0029734327
87	0xbd704023	-0.058654916
88	0x3ce2277f	0.027606724
89	0xbdb51aed	-0.08843026
90	0x3dbe3155	0.09286753
91	0xbc5a33cc	-0.013318013
92	0xbbc55e5d	-0.006023212
93	0xbd7113fa	-0.05885694
94	0x3dd2f36f	0.103003375
95	0xbd86b3f0	-0.06577289
96	0x3d616e24	0.05503668
97	0xbb09413a	-0.002094342
98	0x3c17d92f	0.009268089
99	0xbc9917da	-0.018688131
100	0xbd4f6e35	-0.05064221
101	0xbd8935b2	-0.06699695
102	0xbd1bd693	-0.03804643
103	0x3dbe3cec	0.09288964
104	0xb7bf0cbe	-2.2774908e-05
105	0xbd8290a7	-0.063752465
106	0x3d61eaab	0.055155437
107	0x3da8ac44	0.08235982
108	0x3db495c8	0.08817631
109	0x3d0e2c1f	0.034710046
110	0x3c8ea83f	0.01741421
111	0x3c8abb27	0.016934944
112	0x3d8b3435	0.06797067
113	0xbd8b1370	-0.06790817
114	0xbd947f1d	-0.072508074
115	0x3b62bb20	0.0034596398
116	0x3da3ce38	0.079983175
117	0x3db70177	0.08935826
118	0xbd03cedb	-0.032179695
119	0x3d185ed2	0.037199803
120	0xbd3a4db3	-0.045484256
121	0x3cdeb37d	0.027185196
122	0xbd26acdf	-0.040692206
123	0xbc7edffe	-0.015556334
124	0x3cf67b8f	0.030088214
125	0xbd546c63	-0.051861178
126	0xbd2c0534	-0.04199715
127	0x3c1993f9	0.009373658
128	0x3da30d63	0.07961538
129	0x3d95a539	0.07306904
130	0xbcacdba5	-0.021100828
131	0x3d7e3956	0.0620664
132	0x3d9651a9	0.07339794
133	0x3bac7c9c	0.005263878
134	0xbd8eaa3e	-0.06966065
135	0x3d14a248	0.036287576
136	0xbddbd1aa	-0.107333496
137	0x3d70d003	0.058792125
138	0x3cfcb262	0.030846778
139	0xbcdd3285	-0.027001629
140	0x3d8cc1dd	0.06872914
141	0xbd9984dd	-0.07496045
142	0xbd79f3a8	-0.061023384
143	0x3cbd37df	0.02309793
144	0xbca3d046	-0.019996773
145	0xbcacccde	-0.021093782
146	0x3da31553	0.07963052
147	0x3de4752d	0.11155162
148	0x3d84a616	0.06476991
149	0x3dbbe48d	0.09174452
150	0x3de1c15f	0.11023211
151	0xbdcef142	-0.1010461
152	0x3dc53018	0.09628314
153	0x3d45312a	0.04814259
154	0x3da36c24	0.079796106
155	0x3d01af74	0.031661466
156	0x3d51051b	0.05103026
157	0xbd33cb94	-0.04389532
158	0xbd9f3b5a	-0.07774992
159	0x3d851a38	0.064991415
160	0xbd9c0ce4	-0.07619646
161	0x3cb5ac0e	0.022176769
162	0xbd960f40	-0.073271275
163	0x3ccb74a8	0.0248359
164	0xbd9525df	-0.07282614
165	0x3c866319	0.016404675
166	0x3d93cbfb	0.072166406
167	0xbd9962e2	-0.074895635
168	0x3dbad8e5	0.091234006
169	0x3d090828	0.033455044
170	0x3dc0ed82	0.09420301
171	0x3de925b8	0.113841474
172	0x3d845c42	0.06462909
173	0x3cacf5e6	0.021113347
174	0x3dc0c5d6	0.09412734
175	0x3d7650d3	0.060135674
176	0x3ddd7305	0.10812954
177	0xbc8c6357	-0.017137213
178	0x3de0a77b	0.10969444
179	0x3de756b1	0.11295832
180	0x3dd961ce	0.10614358
181	0xbd0710c3	-0.03297497
182	0x3d399ff3	0.045318555
183	0x3dad9c3f	0.08477067
184	0x3db1e928	0.08687049
185	0x3df9e3ad	0.12201629
186	0x3d52ffc8	0.051513463
187	0xbcedbf51	-0.02902189
188	0xbd7ab4ed	-0.0612077
189	0x3dd54ea4	0.1041539
190	0xbd5768f6	-0.052590333
191	0x3da4ebfa	0.080528215
192	0x3d42a79c	0.047523126
193	0xbd7a1c7f	-0.061062332
194	0xbd68e6ff	-0.05686092
195	0x3db16f6d	0.08663831
196	0xbdd22200	-0.10260391
197	0xbdbeb00a	-0.093109205
198	0x3db6ec63	0.08931806
199	0xbdb9d4c8	-0.09073788
200	0xbda48e3b	-0.08034941
201	0xbcb08ad6	-0.021550577
202	0x3dca620b	0.098819815
203	0x3d889197	0.06668394
204	0xbbbaace7	-0.005696881
205	0x3d730f55	0.059340794
206	0x3d731cbd	0.05935358
207	0xbd9692b1	-0.07352198
208	0x3cd08d7d	0.025458092
209	0x3d26d8be	0.040734045
210	0x3d1a4985	0.03766777
211	0x3d2de567	0.042455103
212	0x3d60940e	0.054828696
213	0xbcb0800e	-0.021545436
214	0xbd2cb00a	-0.04216007
215	0xbd9c9a82	-0.076466575
216	0xbd8a93a3	-0.06766441
217	0x3d8c0af2	0.06838025
218	0x3c0d6b0c	0.008631479
219	0x3c9b3ed2	0.018950853
220	0x3d8ae878	0.06782621
221	0xbdd5aebf	-0.10433721
222	0x3d55e0c5	0.05221631
223	0xbdce536e	-0.10074507
224	0xbdc3118e	-0.09524833
225	0xbdbf0682	-0.09327413
226	0x3cbd6337	0.023118598
227	0xbdba7a70	-0.09105384
228	0x3c148fbb	0.009067471
229	0x3c8c84cd	0.017153168
230	0xbd85d7ab	-0.06535276
231	0xbdab224f	-0.08356153
232	0x3dba956e	0.09110533
233	0x3cb9038d	0.022584701
234	0x3deb940a	0.115028456
235	0xbda7f1dc	-0.08200428
236	0xbd67fcd0	-0.056637585
237	0xbd065f06	-0.032805465
238	0xbd8db409	-0.069191046
239	0xbd96455b	-0.07337447
240	0xbd0aa8f8	-0.033852547
241	0xbb8e8249	-0.0043490273
242	0x3d914ae7	0.070943646
243	0xbd9f4bdb	-0.0777814
244	0xbdda1e0d	-0.10650263
245	0x3d5f1eaf	0.05447262
246	0xbd9190d0	-0.07107699
247	0x3c254aa2	0.010088595
248	0xbdb64e41	-0.089016445
249	0xbd5dbe4c	-0.05413656
250	0x3db9480b	0.09046944
251	0xbd457cc2	-0.04821468
252	0xbd06be95	-0.032896597
253	0xbd284838	-0.0410845
254	0xbdcd9964	-0.100390226
255	0x3c753672	0.014966594

bias f4 [10]
0	0x3db670f5	0.089082636
1	0x3d9b951d	0.075968005
2	0x3d456b9f	0.04819834
3	0x3dacdc36	0.084404394
4	0xbce585c9	-0.028017895
5	0xbd65c7f5	-0.056098897
6	0xbd8518af	-0.06498849
7	0xbdafe5aa	-0.08588727
8	0xbddf2b6a	-0.108969525
9	0xbda8ccbf	-0.08242177
